Model
________________________________________________________________________________
Layer (type)                        Output Shape                    Param #     
================================================================================
dense_1 (Dense)                     (None, 18)                      324         
________________________________________________________________________________
dropout_1 (Dropout)                 (None, 18)                      0           
________________________________________________________________________________
dense_2 (Dense)                     (None, 40)                      760         
________________________________________________________________________________
dropout_2 (Dropout)                 (None, 40)                      0           
________________________________________________________________________________
dense_3 (Dense)                     (None, 10)                      410         
________________________________________________________________________________
dropout_3 (Dropout)                 (None, 10)                      0           
________________________________________________________________________________
dense_4 (Dense)                     (None, 2)                       22          
================================================================================
Total params: 1,516
Trainable params: 1,516
Non-trainable params: 0
________________________________________________________________________________


