Model
________________________________________________________________________________
Layer (type)                        Output Shape                    Param #     
================================================================================
dense_1 (Dense)                     (None, 18)                      324         
________________________________________________________________________________
dropout_1 (Dropout)                 (None, 18)                      0           
________________________________________________________________________________
dense_2 (Dense)                     (None, 500)                     9500        
________________________________________________________________________________
dropout_2 (Dropout)                 (None, 500)                     0           
________________________________________________________________________________
dense_3 (Dense)                     (None, 450)                     225450      
________________________________________________________________________________
dropout_3 (Dropout)                 (None, 450)                     0           
________________________________________________________________________________
dense_4 (Dense)                     (None, 450)                     202950      
________________________________________________________________________________
dropout_4 (Dropout)                 (None, 450)                     0           
________________________________________________________________________________
dense_5 (Dense)                     (None, 400)                     180400      
________________________________________________________________________________
dropout_5 (Dropout)                 (None, 400)                     0           
________________________________________________________________________________
dense_6 (Dense)                     (None, 400)                     160400      
________________________________________________________________________________
dropout_6 (Dropout)                 (None, 400)                     0           
________________________________________________________________________________
dense_7 (Dense)                     (None, 300)                     120300      
________________________________________________________________________________
dropout_7 (Dropout)                 (None, 300)                     0           
________________________________________________________________________________
dense_8 (Dense)                     (None, 250)                     75250       
________________________________________________________________________________
dropout_8 (Dropout)                 (None, 250)                     0           
________________________________________________________________________________
dense_9 (Dense)                     (None, 200)                     50200       
________________________________________________________________________________
dropout_9 (Dropout)                 (None, 200)                     0           
________________________________________________________________________________
dense_10 (Dense)                    (None, 150)                     30150       
________________________________________________________________________________
dropout_10 (Dropout)                (None, 150)                     0           
________________________________________________________________________________
dense_11 (Dense)                    (None, 100)                     15100       
________________________________________________________________________________
dropout_11 (Dropout)                (None, 100)                     0           
________________________________________________________________________________
dense_12 (Dense)                    (None, 2)                       202         
================================================================================
Total params: 1,070,226
Trainable params: 1,070,226
Non-trainable params: 0
________________________________________________________________________________


