Model
________________________________________________________________________________
Layer (type)                        Output Shape                    Param #     
================================================================================
dense_1 (Dense)                     (None, 18)                      324         
________________________________________________________________________________
dropout_1 (Dropout)                 (None, 18)                      0           
________________________________________________________________________________
dense_2 (Dense)                     (None, 50)                      950         
________________________________________________________________________________
dropout_2 (Dropout)                 (None, 50)                      0           
________________________________________________________________________________
dense_3 (Dense)                     (None, 45)                      2295        
________________________________________________________________________________
dropout_3 (Dropout)                 (None, 45)                      0           
________________________________________________________________________________
dense_4 (Dense)                     (None, 45)                      2070        
________________________________________________________________________________
dropout_4 (Dropout)                 (None, 45)                      0           
________________________________________________________________________________
dense_5 (Dense)                     (None, 40)                      1840        
________________________________________________________________________________
dropout_5 (Dropout)                 (None, 40)                      0           
________________________________________________________________________________
dense_6 (Dense)                     (None, 40)                      1640        
________________________________________________________________________________
dropout_6 (Dropout)                 (None, 40)                      0           
________________________________________________________________________________
dense_7 (Dense)                     (None, 30)                      1230        
________________________________________________________________________________
dropout_7 (Dropout)                 (None, 30)                      0           
________________________________________________________________________________
dense_8 (Dense)                     (None, 25)                      775         
________________________________________________________________________________
dropout_8 (Dropout)                 (None, 25)                      0           
________________________________________________________________________________
dense_9 (Dense)                     (None, 20)                      520         
________________________________________________________________________________
dropout_9 (Dropout)                 (None, 20)                      0           
________________________________________________________________________________
dense_10 (Dense)                    (None, 15)                      315         
________________________________________________________________________________
dropout_10 (Dropout)                (None, 15)                      0           
________________________________________________________________________________
dense_11 (Dense)                    (None, 10)                      160         
________________________________________________________________________________
dropout_11 (Dropout)                (None, 10)                      0           
________________________________________________________________________________
dense_12 (Dense)                    (None, 2)                       22          
================================================================================
Total params: 12,141
Trainable params: 12,141
Non-trainable params: 0
________________________________________________________________________________


