Model
________________________________________________________________________________
Layer (type)                        Output Shape                    Param #     
================================================================================
dense_1 (Dense)                     (None, 18)                      324         
________________________________________________________________________________
dropout_1 (Dropout)                 (None, 18)                      0           
________________________________________________________________________________
dense_2 (Dense)                     (None, 80)                      1520        
________________________________________________________________________________
dropout_2 (Dropout)                 (None, 80)                      0           
________________________________________________________________________________
dense_3 (Dense)                     (None, 40)                      3240        
________________________________________________________________________________
dropout_3 (Dropout)                 (None, 40)                      0           
________________________________________________________________________________
dense_4 (Dense)                     (None, 20)                      820         
________________________________________________________________________________
dropout_4 (Dropout)                 (None, 20)                      0           
________________________________________________________________________________
dense_5 (Dense)                     (None, 2)                       42          
================================================================================
Total params: 5,946
Trainable params: 5,946
Non-trainable params: 0
________________________________________________________________________________


