Model
________________________________________________________________________________
Layer (type)                        Output Shape                    Param #     
================================================================================
dense_1 (Dense)                     (None, 49)                      882         
________________________________________________________________________________
dropout_1 (Dropout)                 (None, 49)                      0           
________________________________________________________________________________
dense_2 (Dense)                     (None, 400)                     20000       
________________________________________________________________________________
dropout_2 (Dropout)                 (None, 400)                     0           
________________________________________________________________________________
dense_3 (Dense)                     (None, 200)                     80200       
________________________________________________________________________________
dropout_3 (Dropout)                 (None, 200)                     0           
________________________________________________________________________________
dense_4 (Dense)                     (None, 2)                       402         
================================================================================
Total params: 101,484
Trainable params: 101,484
Non-trainable params: 0
________________________________________________________________________________


