Model
________________________________________________________________________________
Layer (type)                        Output Shape                    Param #     
================================================================================
dense_1 (Dense)                     (None, 18)                      324         
________________________________________________________________________________
dropout_1 (Dropout)                 (None, 18)                      0           
________________________________________________________________________________
dense_2 (Dense)                     (None, 1000)                    19000       
________________________________________________________________________________
dropout_2 (Dropout)                 (None, 1000)                    0           
________________________________________________________________________________
dense_3 (Dense)                     (None, 500)                     500500      
________________________________________________________________________________
dropout_3 (Dropout)                 (None, 500)                     0           
________________________________________________________________________________
dense_4 (Dense)                     (None, 2)                       1002        
================================================================================
Total params: 520,826
Trainable params: 520,826
Non-trainable params: 0
________________________________________________________________________________


