Model
________________________________________________________________________________
Layer (type)                        Output Shape                    Param #     
================================================================================
dense_1 (Dense)                     (None, 49)                      882         
________________________________________________________________________________
dropout_1 (Dropout)                 (None, 49)                      0           
________________________________________________________________________________
dense_2 (Dense)                     (None, 400)                     20000       
________________________________________________________________________________
dropout_2 (Dropout)                 (None, 400)                     0           
________________________________________________________________________________
dense_3 (Dense)                     (None, 400)                     160400      
________________________________________________________________________________
dropout_3 (Dropout)                 (None, 400)                     0           
________________________________________________________________________________
dense_4 (Dense)                     (None, 300)                     120300      
________________________________________________________________________________
dropout_4 (Dropout)                 (None, 300)                     0           
________________________________________________________________________________
dense_5 (Dense)                     (None, 300)                     90300       
________________________________________________________________________________
dropout_5 (Dropout)                 (None, 300)                     0           
________________________________________________________________________________
dense_6 (Dense)                     (None, 200)                     60200       
________________________________________________________________________________
dropout_6 (Dropout)                 (None, 200)                     0           
________________________________________________________________________________
dense_7 (Dense)                     (None, 200)                     40200       
________________________________________________________________________________
dropout_7 (Dropout)                 (None, 200)                     0           
________________________________________________________________________________
dense_8 (Dense)                     (None, 100)                     20100       
________________________________________________________________________________
dropout_8 (Dropout)                 (None, 100)                     0           
________________________________________________________________________________
dense_9 (Dense)                     (None, 2)                       202         
================================================================================
Total params: 512,584
Trainable params: 512,584
Non-trainable params: 0
________________________________________________________________________________


