Model
________________________________________________________________________________
Layer (type)                        Output Shape                    Param #     
================================================================================
dense_1 (Dense)                     (None, 49)                      882         
________________________________________________________________________________
dropout_1 (Dropout)                 (None, 49)                      0           
________________________________________________________________________________
dense_2 (Dense)                     (None, 100)                     5000        
________________________________________________________________________________
dropout_2 (Dropout)                 (None, 100)                     0           
________________________________________________________________________________
dense_3 (Dense)                     (None, 50)                      5050        
________________________________________________________________________________
dropout_3 (Dropout)                 (None, 50)                      0           
________________________________________________________________________________
dense_4 (Dense)                     (None, 2)                       102         
================================================================================
Total params: 11,034
Trainable params: 11,034
Non-trainable params: 0
________________________________________________________________________________


