Model
________________________________________________________________________________
Layer (type)                        Output Shape                    Param #     
================================================================================
dense_115 (Dense)                   (None, 49)                      931         
________________________________________________________________________________
dropout_89 (Dropout)                (None, 49)                      0           
________________________________________________________________________________
dense_116 (Dense)                   (None, 400)                     20000       
________________________________________________________________________________
dropout_90 (Dropout)                (None, 400)                     0           
________________________________________________________________________________
dense_117 (Dense)                   (None, 200)                     80200       
________________________________________________________________________________
dropout_91 (Dropout)                (None, 200)                     0           
________________________________________________________________________________
dense_118 (Dense)                   (None, 2)                       402         
================================================================================
Total params: 101,533
Trainable params: 101,533
Non-trainable params: 0
________________________________________________________________________________


