Model
________________________________________________________________________________
Layer (type)                        Output Shape                    Param #     
================================================================================
dense_1 (Dense)                     (None, 600)                     11400       
________________________________________________________________________________
dropout_1 (Dropout)                 (None, 600)                     0           
________________________________________________________________________________
dense_2 (Dense)                     (None, 300)                     180300      
________________________________________________________________________________
dropout_2 (Dropout)                 (None, 300)                     0           
________________________________________________________________________________
dense_3 (Dense)                     (None, 200)                     60200       
________________________________________________________________________________
dropout_3 (Dropout)                 (None, 200)                     0           
________________________________________________________________________________
dense_4 (Dense)                     (None, 2)                       402         
================================================================================
Total params: 252,302
Trainable params: 252,302
Non-trainable params: 0
________________________________________________________________________________


