Model
________________________________________________________________________________
Layer (type)                        Output Shape                    Param #     
================================================================================
dense_289 (Dense)                   (None, 400)                     7600        
________________________________________________________________________________
dropout_257 (Dropout)               (None, 400)                     0           
________________________________________________________________________________
dense_290 (Dense)                   (None, 300)                     120300      
________________________________________________________________________________
dropout_258 (Dropout)               (None, 300)                     0           
________________________________________________________________________________
dense_291 (Dense)                   (None, 200)                     60200       
________________________________________________________________________________
dropout_259 (Dropout)               (None, 200)                     0           
________________________________________________________________________________
dense_292 (Dense)                   (None, 2)                       402         
================================================================================
Total params: 188,502
Trainable params: 188,502
Non-trainable params: 0
________________________________________________________________________________


