Model
________________________________________________________________________________
Layer (type)                        Output Shape                    Param #     
================================================================================
dense_1 (Dense)                     (None, 18)                      324         
________________________________________________________________________________
dropout_1 (Dropout)                 (None, 18)                      0           
________________________________________________________________________________
dense_2 (Dense)                     (None, 50)                      950         
________________________________________________________________________________
dropout_2 (Dropout)                 (None, 50)                      0           
________________________________________________________________________________
dense_3 (Dense)                     (None, 40)                      2040        
________________________________________________________________________________
dropout_3 (Dropout)                 (None, 40)                      0           
________________________________________________________________________________
dense_4 (Dense)                     (None, 25)                      1025        
________________________________________________________________________________
dropout_4 (Dropout)                 (None, 25)                      0           
________________________________________________________________________________
dense_5 (Dense)                     (None, 20)                      520         
________________________________________________________________________________
dropout_5 (Dropout)                 (None, 20)                      0           
________________________________________________________________________________
dense_6 (Dense)                     (None, 15)                      315         
________________________________________________________________________________
dropout_6 (Dropout)                 (None, 15)                      0           
________________________________________________________________________________
dense_7 (Dense)                     (None, 10)                      160         
________________________________________________________________________________
dropout_7 (Dropout)                 (None, 10)                      0           
________________________________________________________________________________
dense_8 (Dense)                     (None, 2)                       22          
================================================================================
Total params: 5,356
Trainable params: 5,356
Non-trainable params: 0
________________________________________________________________________________


