Model
________________________________________________________________________________
Layer (type)                        Output Shape                    Param #     
================================================================================
dense_1 (Dense)                     (None, 18)                      324         
________________________________________________________________________________
dropout_1 (Dropout)                 (None, 18)                      0           
________________________________________________________________________________
dense_2 (Dense)                     (None, 180)                     3420        
________________________________________________________________________________
dropout_2 (Dropout)                 (None, 180)                     0           
________________________________________________________________________________
dense_3 (Dense)                     (None, 100)                     18100       
________________________________________________________________________________
dropout_3 (Dropout)                 (None, 100)                     0           
________________________________________________________________________________
dense_4 (Dense)                     (None, 80)                      8080        
________________________________________________________________________________
dropout_4 (Dropout)                 (None, 80)                      0           
________________________________________________________________________________
dense_5 (Dense)                     (None, 2)                       162         
================================================================================
Total params: 30,086
Trainable params: 30,086
Non-trainable params: 0
________________________________________________________________________________


