Model
________________________________________________________________________________
Layer (type)                        Output Shape                    Param #     
================================================================================
dense_1 (Dense)                     (None, 49)                      882         
________________________________________________________________________________
dropout_1 (Dropout)                 (None, 49)                      0           
________________________________________________________________________________
dense_2 (Dense)                     (None, 200)                     10000       
________________________________________________________________________________
dropout_2 (Dropout)                 (None, 200)                     0           
________________________________________________________________________________
dense_3 (Dense)                     (None, 100)                     20100       
________________________________________________________________________________
dropout_3 (Dropout)                 (None, 100)                     0           
________________________________________________________________________________
dense_4 (Dense)                     (None, 2)                       202         
================================================================================
Total params: 31,184
Trainable params: 31,184
Non-trainable params: 0
________________________________________________________________________________


