Model
________________________________________________________________________________
Layer (type)                        Output Shape                    Param #     
================================================================================
dense_1 (Dense)                     (None, 18)                      324         
________________________________________________________________________________
dropout_1 (Dropout)                 (None, 18)                      0           
________________________________________________________________________________
dense_2 (Dense)                     (None, 40)                      760         
________________________________________________________________________________
dropout_2 (Dropout)                 (None, 40)                      0           
________________________________________________________________________________
dense_3 (Dense)                     (None, 25)                      1025        
________________________________________________________________________________
dropout_3 (Dropout)                 (None, 25)                      0           
________________________________________________________________________________
dense_4 (Dense)                     (None, 20)                      520         
________________________________________________________________________________
dropout_4 (Dropout)                 (None, 20)                      0           
________________________________________________________________________________
dense_5 (Dense)                     (None, 10)                      210         
________________________________________________________________________________
dropout_5 (Dropout)                 (None, 10)                      0           
________________________________________________________________________________
dense_6 (Dense)                     (None, 2)                       22          
================================================================================
Total params: 2,861
Trainable params: 2,861
Non-trainable params: 0
________________________________________________________________________________


