Model
________________________________________________________________________________
Layer (type)                        Output Shape                    Param #     
================================================================================
dense_298 (Dense)                   (None, 49)                      882         
________________________________________________________________________________
dropout_265 (Dropout)               (None, 49)                      0           
________________________________________________________________________________
dense_299 (Dense)                   (None, 400)                     20000       
________________________________________________________________________________
dropout_266 (Dropout)               (None, 400)                     0           
________________________________________________________________________________
dense_300 (Dense)                   (None, 400)                     160400      
________________________________________________________________________________
dropout_267 (Dropout)               (None, 400)                     0           
________________________________________________________________________________
dense_301 (Dense)                   (None, 300)                     120300      
________________________________________________________________________________
dropout_268 (Dropout)               (None, 300)                     0           
________________________________________________________________________________
dense_302 (Dense)                   (None, 300)                     90300       
________________________________________________________________________________
dropout_269 (Dropout)               (None, 300)                     0           
________________________________________________________________________________
dense_303 (Dense)                   (None, 200)                     60200       
________________________________________________________________________________
dropout_270 (Dropout)               (None, 200)                     0           
________________________________________________________________________________
dense_304 (Dense)                   (None, 200)                     40200       
________________________________________________________________________________
dropout_271 (Dropout)               (None, 200)                     0           
________________________________________________________________________________
dense_305 (Dense)                   (None, 100)                     20100       
________________________________________________________________________________
dropout_272 (Dropout)               (None, 100)                     0           
________________________________________________________________________________
dense_306 (Dense)                   (None, 2)                       202         
================================================================================
Total params: 512,584
Trainable params: 512,584
Non-trainable params: 0
________________________________________________________________________________


