Model
________________________________________________________________________________
Layer (type)                        Output Shape                    Param #     
================================================================================
dense_9 (Dense)                     (None, 18)                      324         
________________________________________________________________________________
dropout_7 (Dropout)                 (None, 18)                      0           
________________________________________________________________________________
dense_10 (Dense)                    (None, 400)                     7600        
________________________________________________________________________________
dropout_8 (Dropout)                 (None, 400)                     0           
________________________________________________________________________________
dense_11 (Dense)                    (None, 200)                     80200       
________________________________________________________________________________
dropout_9 (Dropout)                 (None, 200)                     0           
________________________________________________________________________________
dense_12 (Dense)                    (None, 2)                       402         
================================================================================
Total params: 88,526
Trainable params: 88,526
Non-trainable params: 0
________________________________________________________________________________


