Model
________________________________________________________________________________
Layer (type)                        Output Shape                    Param #     
================================================================================
dense_652 (Dense)                   (None, 18)                      324         
________________________________________________________________________________
dropout_488 (Dropout)               (None, 18)                      0           
________________________________________________________________________________
dense_653 (Dense)                   (None, 1000)                    19000       
________________________________________________________________________________
dropout_489 (Dropout)               (None, 1000)                    0           
________________________________________________________________________________
dense_654 (Dense)                   (None, 500)                     500500      
________________________________________________________________________________
dropout_490 (Dropout)               (None, 500)                     0           
________________________________________________________________________________
dense_655 (Dense)                   (None, 2)                       1002        
================================================================================
Total params: 520,826
Trainable params: 520,826
Non-trainable params: 0
________________________________________________________________________________


